…
Conv2D(64, (3, 3), activation='relu'), #relu: recitified linear unit\n    layers.MaxPooling2D((2, 2)),\n    layers.Flatten(), #flattens the input, makes the multidimensional input 1D\n    layers.Dense(64, activation='relu'),\n    layers.Dense(64, activation='sigmoid') # sigmoid for the cat/dog binary classification\n\n])\nmodel1.summary()\n\nModel: \"sequential_39\"\n_________________________________________________________________\n Layer (type)                Output Shape              Param #   \n=================================================================\n dropout_33 (Dropout)        (None, 150, 150, 3)       0         \n                                                                 \n conv2d_70 (Conv2D)          (None, 148, 148, 32)      896       \n                                                                 \n max_pooling2d_64 (MaxPooli  (None, 74, 74, 32)        0         \n ng2D)                                                           \n                                                                 \n conv2d_71 (Conv2D)          (None, 72, 72, 64)        18496     \n                                                                 \n max_pooling2d_65 (MaxPooli  (None, 36, 36, 64)        0         \n ng2D)                                                           \n                                                                 \n flatten_39 (Flatten)        (None, 82944)             0         \n                                                                 \n dense_72 (Dense)            (None, 64)                5308480   \n                                                                 \n dense_73 (Dense)            (None, 64)                4160      \n                                                                 \n=================================================================\nTotal params: 5332032 (20.34 MB)\nTrainable params: 5332032 (20.34 MB)\nNon-trainable params: 0 (0.00 Byte)\n_________________________________________________________________\n\n\nWe first complile the model and then train the model\n\nmodel1.compile(optimiz
…
 layers.Flatten(), #flattens the input, makes the multidimensional input 1D\n    layers.Dense(64, activation='relu'),\n    layers.Dropout(0.3), # randomly drop out 30% of the input\n    layers.Dense(64, activation='softmax') # normalize the outputs, convert from weighted sum values into probabilities that sum to one\n\n])\nmodel2.summary()\n\nModel: \"sequential_9\"\n_________________________________________________________________\n Layer (type)                Output Shape              Param #   \n=================================================================\n random_flip_8 (RandomFlip)  (None, 150, 150, 3)       0         \n                                                                 \n random_rotation_8 (RandomR  (None, 150, 150, 3)       0         \n otation)                                                        \n                                                                 \n conv2d_18 (Conv2D)          (None, 148, 148, 32)      896       \n                                                                 \n max_pooling2d_18 (MaxPooli  (None, 74, 74, 32)        0         \n ng2D)                                                           \n                                                                 \n conv2d_19 (Conv2D)          (None, 72, 72, 64)        18496     \n                                                                 \n max_pooling2d_19 (MaxPooli  (None, 36, 36, 64)        0         \n ng2D)                                                           \n                                                                 \n flatten_9 (Flatten)         (None, 82944)             0         \n                                                                 \n dense_18 (Dense)            (None, 64)                5308480   \n                                                                 \n dropout_9 (Dropout)         (None, 64)                0         \n                                                                 \n dense_19 (Dense)            (None, 64)                4160      \n                                                                 \n=================================================================\nTotal params: 5332032 (20.34 MB)\nTrainable params: 5332032 (20.34 MB)\nNon-trainable params: 0 (0.00 Byte)\n_________________________________________________________________\n\n\n\nmodel2.compile(optimizer='adam',\n              loss='sparse_categorical_cro
…
\n    layers.MaxPooling2D((2, 2)),\n    layers.Flatten(), #flattens the input, makes the multidimensional input 1D\n\n    layers.Dropout(0.3), # randomly drop out 30% of the input\n    layers.Dense(64, activation='softmax') # normalize the outputs, convert from weighted sum values into probabilities that sum to one\n\n])\nmodel3.summary()\n\nModel: \"sequential_40\"\n_________________________________________________________________\n Layer (type)                Output Shape              Param #   \n=================================================================\n model_5 (Functional)        (None, 150, 150, 3)       0         \n                                                                 \n random_flip_36 (RandomFlip  (None, 150, 150, 3)       0         \n )                                                               \n                                                                 \n random_rotation_36 (Random  (None, 150, 150, 3)       0         \n Rotation)                                                       \n                                                                 \n conv2d_72 (Conv2D)          (None, 148, 148, 32)      896       \n                                                                 \n max_pooling2d_66 (MaxPooli  (None, 74, 74, 32)        0         \n ng2D)                                                           \n                                                                 \n conv2d_73 (Conv2D)          (None, 72, 72, 64)        18496     \n                                                                 \n max_pooling2d_67 (MaxPooli  (None, 36, 36, 64)        0         \n ng2D)                                                           \n                                                                 \n flatten_40 (Flatten)        (None, 82944)             0         \n                                                                 \n dropout_34 (Dropout)        (None, 82944)             0         \n                                                                 \n dense_74 (Dense)            (None, 64)                5308480   \n                                                                 \n=================================================================\nTotal params: 5327872 (20.32 MB)\nTrainable params: 5327872 (20.32 MB)\nNon-trainable params: 0 (0.00 Byte)\n_________________________________________________________________\n\n\n\nmodel3.compile(optimizer='adam',\n              loss='sparse_categorical_crosse
…
\n    layers.RandomRotation(0.24),\n    layers.Flatten(), #flattens the input, makes the multidimensional input 1D\n    layers.Dropout(0.3), # I put an additionaly dropout layer; we don't need a lot additional layers\n    layers.Dense(2)# we have Dense(2) layer at the very end to actually perform the classification\n\n])\nmodel4.summary()\n\nModel: \"sequential_35\"\n_________________________________________________________________\n Layer (type)                Output Shape              Param #   \n=================================================================\n model_7 (Functional)        (None, 5, 5, 960)         2996352   \n                                                                 \n random_flip_34 (RandomFlip  (None, 5, 5, 960)         0         \n )                                                               \n                                                                 \n random_rotation_34 (Random  (None, 5, 5, 960)         0         \n Rotation)                                                       \n                                                                 \n flatten_35 (Flatten)        (None, 24000)             0         \n                                                                 \n dropout_29 (Dropout)        (None, 24000)             0         \n                                                                 \n dense_66 (Dense)            (None, 2)                 48002     \n                                                                 \n=================================================================\nTotal params: 3044354 (11.61 MB)\nTrainable params: 48002 (187.51 KB)\nNon-trainable params: 2996352 (11.43 MB)\n_________________________________________________________________\n\n\n*Model4 Summary Analysis: The base_model_layer is nuanced: There are 48002 
…
ary:\")\nmodel1.summary()\nplot_model(model1, to_file='model1.png', show_shapes=True, show_layer_names=True)\ndisplay(Image(filename='model1.png'))\n\n# Train and plot history for model1\ntrain_and_plot_history(model1, train, val)\n\n\nModel 1 Summary:\n\n\nModel: \"functional_1\"\n\n\n\n┏━━━━━━━━━━━━━━━━━━━━━━━━━━━━━━━━━━━━━━┳━━━━━━━━━━━━━━━━━━━━━━━━━━━━━┳━━━━━━━━━━━━━━━━━┓\n┃ Layer (type)                         ┃ Output Shape                ┃         Param # ┃\n┡━━━━━━━━━━━━━━━━━━━━━━━━━━━━━━━━━━━━━━╇━━━━━━━━━━━━━━━━━━━━━━━━━━━━━╇━━━━━━━━━━━━━━━━━┩\n│ title (InputLayer)                   │ (None, 1)                   │               0 │\n├──────────────────────────────────────┼─────────────────────────────┼─────────────────┤\n│ text_vectorization_1                 │ (None, 500)                 │               0 │\n│ (TextVectorization)                  │                             │                 │\n├──────────────────────────────────────┼─────────────────────────────┼─────────────────┤\n│ embedding_title (Embedding)          │ (None, 500, 3)              │           6,000 │\n├──────────────────────────────────────┼─────────────────────────────┼─────────────────┤\n│ dropout (Dropout)                    │ (None, 500, 3)              │               0 │\n├──────────────────────────────────────┼─────────────────────────────┼─────────────────┤\n│ global_average_pooling1d             │ (None, 3)                   │               0 │\n│ (GlobalAveragePooling1D)             │                             │                 │\n├──────────────────────────────────────┼─────────────────────────────┼─────────────────┤\n│ dropout_1 (Dropout)                  │ (None, 3)                   │               0 │\n├──────────────────────────────────────┼─────────────────────────────┼─────────────────┤\n│ dense (Dense)                        │ (None, 32)                  │             128 │\n├──────────────────────────────────────┼─────────────────────────────┼─────────────────┤\n│ fake (Dense)                         │ (None, 2)                   │              66 │\n└──────────────────────────────────────┴─────────────────────────────┴─────────────────┘\n\n\n\n Total params: 6,194 (24.20 KB)\n\n\n\n Trainable params: 6,194 (24.20 KB)\n\n\n\n Non-trainable params: 0 (0.00 B)\n\n\n\n\n\n\n\n\n\n\n/usr/local/lib/python3.10/dist-packages/keras/src/backend/tensorflow/nn.py:599: UserWarning: \"`sparse_categorical_crossentropy` received `from_logits=True`, but t
…
mmary:\")\nmodel2.summary()\nplot_model(model2, to_file='model2.png', show_shapes=True, show_layer_names=True)\ndisplay(Image(filename='model2.png'))\n# Train and plot history for model3\ntrain_and_plot_history(model2, train, val)\n\n\nModel 2 Summary:\n\n\nModel: \"functional_3\"\n\n\n\n┏━━━━━━━━━━━━━━━━━━━━━━━━━━━━━━━━━━━━━━┳━━━━━━━━━━━━━━━━━━━━━━━━━━━━━┳━━━━━━━━━━━━━━━━━┓\n┃ Layer (type)                         ┃ Output Shape                ┃         Param # ┃\n┡━━━━━━━━━━━━━━━━━━━━━━━━━━━━━━━━━━━━━━╇━━━━━━━━━━━━━━━━━━━━━━━━━━━━━╇━━━━━━━━━━━━━━━━━┩\n│ text (InputLayer)                    │ (None, 1)                   │               0 │\n├──────────────────────────────────────┼─────────────────────────────┼─────────────────┤\n│ text_vectorization_2                 │ (None, 500)                 │               0 │\n│ (TextVectorization)                  │                             │                 │\n├──────────────────────────────────────┼─────────────────────────────┼─────────────────┤\n│ embedding_text (Embedding)           │ (None, 500, 7)              │          14,000 │\n├──────────────────────────────────────┼─────────────────────────────┼─────────────────┤\n│ dropout_2 (Dropout)                  │ (None, 500, 7)              │               0 │\n├──────────────────────────────────────┼─────────────────────────────┼─────────────────┤\n│ global_average_pooling1d_1           │ (None, 7)                   │               0 │\n│ (GlobalAveragePooling1D)             │                             │                 │\n├──────────────────────────────────────┼─────────────────────────────┼─────────────────┤\n│ dropout_3 (Dropout)                  │ (None, 7)                   │               0 │\n├──────────────────────────────────────┼─────────────────────────────┼─────────────────┤\n│ dense_1 (Dense)                      │ (None, 32)                  │             256 │\n├──────────────────────────────────────┼─────────────────────────────┼─────────────────┤\n│ fake (Dense)                         │ (None, 2)                   │              66 │\n└──────────────────────────────────────┴─────────────────────────────┴─────────────────┘\n\n\n\n Total params: 14,322 (55.95 KB)\n\n\n\n Trainable params: 14,322 (55.95 KB)\n\n\n\n Non-trainable params: 0 (0.00 B)\n\n\n\n\n\n\n\n\n\n\n\n\n\n\n\n\n\n\n\n\nNow we proceed to the third and the last model. We now build and compilea a combined neural network model that processes titles and texts sim
…
l3.summary()\nplot_model(model3, to_file='model3.png', show_shapes=True, show_layer_names=True)\ndisplay(Image(filename='model3.png'))\n\n# Train and plot history for model3\ntrain_and_plot_history(model3, train, val)\n\n\nModel 3 Summary:\n\n\nModel: \"functional_5\"\n\n\n\n┏━━━━━━━━━━━━━━━━━━━━━━━━━━━┳━━━━━━━━━━━━━━━━━━━━━━━━┳━━━━━━━━━━━━━━━━┳━━━━━━━━━━━━━━━━━━━━━━━━┓\n┃ Layer (type)              ┃ Output Shape           ┃        Param # ┃ Connected to           ┃\n┡━━━━━━━━━━━━━━━━━━━━━━━━━━━╇━━━━━━━━━━━━━━━━━━━━━━━━╇━━━━━━━━━━━━━━━━╇━━━━━━━━━━━━━━━━━━━━━━━━┩\n│ title (InputLayer)        │ (None, 1)              │              0 │ -                      │\n├───────────────────────────┼────────────────────────┼────────────────┼────────────────────────┤\n│ text (InputLayer)         │ (None, 1)              │              0 │ -                      │\n├───────────────────────────┼────────────────────────┼────────────────┼────────────────────────┤\n│ text_vectorization_1      │ (None, 500)            │              0 │ title[0][0]            │\n│ (TextVectorization)       │                        │                │                        │\n├───────────────────────────┼────────────────────────┼────────────────┼────────────────────────┤\n│ text_vectorization_2      │ (None, 500)            │              0 │ text[0][0]             │\n│ (TextVectorization)       │                        │                │                        │\n├───────────────────────────┼────────────────────────┼────────────────┼────────────────────────┤\n│ embedding_title           │ (None, 500, 3)         │          6,000 │ text_vectorization_1[… │\n│ (Embedding)               │                        │                │                        │\n├───────────────────────────┼────────────────────────┼────────────────┼────────────────────────┤\n│ embedding_text            │ (None, 500, 7)         │         14,000 │ text_vectorization_2[… │\n│ (Embedding)               │                        │                │                        │\n├───────────────────────────┼────────────────────────┼────────────────┼────────────────────────┤\n│ dropout_4 (Dropout)       │ (None, 500, 3)         │              0 │ embedding_title[0][0]  │\n├───────────────────────────┼────────────────────────┼────────────────┼────────────────────────┤\n│ dropout_5 (Dropout)       │ (None, 500, 7)         │              0 │ embedding_text[0][0]   │\n├───────────────────────────┼────────────────────────┼────────────────┼────────────────────────┤\n│ global_average_pooling1d… │ (None, 3)              │              0 │ dropout_4[0][0]        │\n│ (GlobalAveragePooling1D)  │                        │                │                        │\n├───────────────────────────┼────────────────────────┼────────────────┼────────────────────────┤\n│ global_average_pooling1d… │ (None, 7)              │              0 │ dropout_5[0][0]        │\n│ (GlobalAveragePooling1D)  │                        │                │                        │\n├───────────────────────────┼────────────────────────┼────────────────┼────────────────────────┤\n│ dense_2 (Dense)           │ (None, 32)             │            128 │ global_average_poolin… │\n├───────────────────────────┼────────────────────────┼────────────────┼────────────────────────┤\n│ dense_3 (Dense)           │ (None, 32)             │            256 │ global_average_poolin… │\n├───────────────────────────┼────────────────────────┼────────────────┼────────────────────────┤\n│ concatenate (Concatenate) │ (None, 64)             │              0 │ dense_2[0][0],         │\n│                           │                        │                │ dense_3[0][0]          │\n├───────────────────────────┼────────────────────────┼────────────────┼────────────────────────┤\n│ fake (Dense)              │ (None, 2)              │            130 │ concatenate[0][0]      │\n└───────────────────────────┴────────────────────────┴────────────────┴────────────────────────┘\n\n\n\n Total params: 20,514 (80.13 KB)\n\n\n\n Trainable params: 20,514 (80.13 KB)\n\n\n\n Non-trainable params: 0 (0.00 B)\n\n\n\n\n\n\n\n\n\n\n\n\n\n\n\n\n\nNow we evaluate three models (model1, model2, model3) on both validation and training datasets, calculating and pr
…
